…
regressor.add(LSTM(units = 50, return_sequences = True))
regressor.add(Dropout(0.2))

# Adding a fourth LSTM layer and some Dropout regularisation
regressor.add(LSTM(units = 50))
regressor.add(Dropout(0.2))

# Adding the output layer
regressor.add(Dense(units = 1))

# Compiling the RNN
regressor.compile(optimizer = 'adam', loss = 'mean_squared_error')
     

regressor.summary()
     
Model: "sequential"
_________________________________________________________________
 Layer (type)                Output Shape              Param #   
=================================================================
 lstm (LSTM)                 (None, 100, 50)           10400     
                                                                 
 dropout (Dropout)           (None, 100, 50)           0         
                                                                 
 lstm_1 (LSTM)               (None, 100, 50)           20200     
                                                                 
 dropout_1 (Dropout)         (None, 100, 50)           0         
                                                                 
 lstm_2 (LSTM)               (None, 100, 50)           20200     
                                                                 
 dropout_2 (Dropout)         (None, 100, 50)           0         
                                                                 
 lstm_3 (LSTM)               (None, 50)                20200     
                                                                 
 dropout_3 (Dropout)         (None, 50)                0         
                                                                 
 dense (Dense)               (None, 1)                 51        
                                                                 
=================================================================
Total params: 71051 (277.54 KB)
Trainable params: 71051 (277.54 KB)
Non-trainable params: 0 (0.00 Byte)
_________________________________________________________________

# Fitting the RNN to the Training set
history = regressor.fit(X_train, y_train, validation_split=0.1, epochs = 50, batch_size = 32, verbose=1, shuffle=False)
…
